…
        "colab": {
          "base_uri": "https://localhost:8080/"
        },
        "id": "wiGZ0X6faXrr",
        "outputId": "bc2962d0-0cb2-45a8-f586-797805f8e603"
      },
      "outputs": [
        {
          "output_type": "stream",
          "name": "stdout",
          "text": [
            "Model: \"sequential\"\n",
            "_________________________________________________________________\n",
            " Layer (type)                Output Shape              Param #   \n",
            "=================================================================\n",
            " conv2d (Conv2D)             (None, 126, 126, 64)      1792      \n",
            "                                                                 \n",
            " batch_normalization (Batch  (None, 126, 126, 64)      256       \n",
            " Normalization)                                                  \n",
            "                                                                 \n",
            " max_pooling2d (MaxPooling2  (None, 63, 63, 64)        0         \n",
            " D)                                                              \n",
            "                                                                 \n",
            " dropout (Dropout)           (None, 63, 63, 64)        0         \n",
            "                                                                 \n",
            " conv2d_1 (Conv2D)           (None, 61, 61, 64)        36928     \n",
            "                                                                 \n",
            " batch_normalization_1 (Bat  (None, 61, 61, 64)        256       \n",
            " chNormalization)                                                \n",
            "                                                                 \n",
            " max_pooling2d_1 (MaxPoolin  (None, 30, 30, 64)        0         \n",
            " g2D)                                                            \n",
            "                                                                 \n",
            " dropout_1 (Dropout)         (None, 30, 30, 64)        0         \n",
            "                                                                 \n",
            " conv2d_2 (Conv2D)           (None, 28, 28, 128)       73856     \n",
            "                                                                 \n",
            " batch_normalization_2 (Bat  (None, 28, 28, 128)       512       \n",
            " chNormalization)                                                \n",
            "                                                                 \n",
            " max_pooling2d_2 (MaxPoolin  (None, 14, 14, 128)       0         \n",
            " g2D)                                                            \n",
            "                                                                 \n",
            " dropout_2 (Dropout)         (None, 14, 14, 128)       0         \n",
            "                                                                 \n",
            " flatten (Flatten)           (None, 25088)             0         \n",
            "                                                                 \n",
            " dense (Dense)               (None, 512)               12845568  \n",
            "                                                                 \n",
            " batch_normalization_3 (Bat  (None, 512)               2048      \n",
            " chNormalization)                                                \n",
            "                                                                 \n",
            " dropout_3 (Dropout)         (None, 512)               0         \n",
            "                                                                 \n",
            " dense_1 (Dense)             (None, 2)                 1026      \n",
            "                                                                 \n",
            "=================================================================\n",
            "Total params: 12962242 (49.45 MB)\n",
            "Trainable params: 12960706 (49.44 MB)\n",
            "Non-trainable params: 1536 (6.00 KB)\n",
            "_________________________________________________________________\n"
…
          "base_uri": "https://localhost:8080/"
        },
        "id": "O4SlQ1mc7nrv",
        "outputId": "5bcedae6-e010-4da9-bb8d-fa84f636a061"
      },
      "execution_count": null,
      "outputs": [
        {
          "output_type": "stream",
          "name": "stdout",
          "text": [
            "Model: \"sequential_1\"\n",
            "_________________________________________________________________\n",
            " Layer (type)                Output Shape              Param #   \n",
            "=================================================================\n",
            " conv2d_3 (Conv2D)           (None, 126, 126, 32)      896       \n",
            "                                                                 \n",
            " batch_normalization_4 (Bat  (None, 126, 126, 32)      128       \n",
            " chNormalization)                                                \n",
            "                                                                 \n",
            " max_pooling2d_3 (MaxPoolin  (None, 63, 63, 32)        0         \n",
            " g2D)                                                            \n",
            "                                                                 \n",
            " dropout_4 (Dropout)         (None, 63, 63, 32)        0         \n",
            "                                                                 \n",
            " conv2d_4 (Conv2D)           (None, 61, 61, 64)        18496     \n",
            "                                                                 \n",
            " batch_normalization_5 (Bat  (None, 61, 61, 64)        256       \n",
            " chNormalization)                                                \n",
            "                                                                 \n",
            " max_pooling2d_4 (MaxPoolin  (None, 30, 30, 64)        0         \n",
            " g2D)                                                            \n",
            "                                                                 \n",
            " dropout_5 (Dropout)         (None, 30, 30, 64)        0         \n",
            "                                                                 \n",
            " conv2d_5 (Conv2D)           (None, 28, 28, 128)       73856     \n",
            "                                                                 \n",
            " batch_normalization_6 (Bat  (None, 28, 28, 128)       512       \n",
            " chNormalization)                                                \n",
            "                                                                 \n",
            " max_pooling2d_5 (MaxPoolin  (None, 14, 14, 128)       0         \n",
            " g2D)                                                            \n",
            "                                                                 \n",
            " dropout_6 (Dropout)         (None, 14, 14, 128)       0         \n",
            "                                                                 \n",
            " conv2d_6 (Conv2D)           (None, 12, 12, 256)       295168    \n",
            "                                                                 \n",
            " batch_normalization_7 (Bat  (None, 12, 12, 256)       1024      \n",
            " chNormalization)                                                \n",
            "                                                                 \n",
            " max_pooling2d_6 (MaxPoolin  (None, 6, 6, 256)         0         \n",
            " g2D)                                                            \n",
            "                                                                 \n",
            " dropout_7 (Dropout)         (None, 6, 6, 256)         0         \n",
            "                                                                 \n",
            " flatten_1 (Flatten)         (None, 9216)              0         \n",
            "                                                                 \n",
            " dense_2 (Dense)             (None, 512)               4719104   \n",
            "                                                                 \n",
            " batch_normalization_8 (Bat  (None, 512)               2048      \n",
            " chNormalization)                                                \n",
            "                                                                 \n",
            " dropout_8 (Dropout)         (None, 512)               0         \n",
            "                                                                 \n",
            " dense_3 (Dense)             (None, 2)                 1026      \n",
            "                                                                 \n",
            "=================================================================\n",
            "Total params: 5112514 (19.50 MB)\n",
            "Trainable params: 5110530 (19.50 MB)\n",
            "Non-trainable params: 1984 (7.75 KB)\n",
            "_________________________________________________________________\n"
…
